models/CombineFeatures/DemographicPath.pth (torch, 2719 bytes, 4 tensors)

0.weight f4 [8, 2]
0.09012913 0.3675598 -0.74020034 -0.42685238 -0.40959573 0.2633788 0.06039777 0.5474106
0.039136883 0.17734046 -0.36695403 -0.12728253 -0.8387503 -0.36482015 -0.4493716 0.038263474
00000000: 9f95 b83d cc30 bc3e c57d 3dbf 658c dabe
00000010: 88b6 d1be 96d9 863e a763 773d 1a23 0c3f
00000020: ff4d 203d bd98 353e 66e1 bbbe 5a56 02be
00000030: 57b8 56bf b5c9 babe 0914 e6be 29ba 1c3d

0.bias f4 [8]
0.28222737 0.48752227 -0.3770283 -0.32116494 0.26498362 0.5839815 -0.011322695 0.52064615
00000000: 1b80 903e 859c f93e da09 c1be bb6f a4be
00000010: efab 873e d07f 153f d382 39bc 1149 053f

2.weight f4 [32, 8]
-0.07172019 0.08033484 0.39705038 -0.33144283 -0.23566443 -0.07781181 -0.06363378 0.3257622
-0.23536682 -0.20482509 -0.2910349 -0.34281588 -0.21802802 0.28297767 0.104273394 0.14535561
0.020423325 -0.23722333 -0.0038264396 -0.32970488 -0.26069453 -0.21169078 0.15211385 0.1723156
-0.15845615 0.08555124 0.34415784 0.355102 0.15148634 0.1019716 0.36254716 -0.14310265
0.06721269 -0.37749606 -0.37232077 -0.19128425 0.14925362 0.08738573 -0.3459538 0.03930708
0.19307204 -0.027337328 0.032215 0.079398096 0.22147515 0.35004833 -0.25426576 -0.11825218
0.14426328 0.25530028 0.2700177 0.31246585 0.07022533 -0.3246811 -0.012034191 -0.2436183
-0.32679743 0.41580802 0.3929231 -0.34326315 0.080314346 -0.0032259147 0.07583561 -0.09405561
0.1388634 -0.3234794 -0.0075322897 0.16799347 0.24180864 0.07349416 -0.49920225 -0.30302525
0.17263216 0.16043098 -0.16199575 -0.19542651 0.33861643 0.28064454 -0.03847658 -0.034278385
-0.32913736 -0.045128915 -0.32562816 -0.26922426 -0.016133972 0.03697766 -0.20263323 0.18874191
-0.21554475 0.43551943 0.38203323 -0.28714168 -0.074410275 0.076424986 0.1987124 0.15822898
0.14060837 -0.061764624 -0.28118846 0.16178301 -0.34459972 -0.25135463 -0.20432763 -0.2237904
-0.12716047 -0.39915356 -0.20393446 0.0634287 -0.24722077 -0.07851435 0.11222827 -0.10946013
0.00597163 0.073608235 0.20154485 0.23131125 0.34377226 0.2797285 0.4719432 0.042717714
-0.30932248 -0.2572014 0.1279596 -0.0029042016 -0.17735758 -0.31444806 -0.4514877 -0.35343206
-0.067137115 0.1012303 0.0724445 -0.3458193 0.2149265 -0.32229075 -0.2015108 -0.20112967
-0.061872784 -0.16512956 -0.4353891 -0.30683553 -0.062134948 -0.04578496 -0.28655294 0.07197151
-0.32106245 0.026596569 0.37831724 -0.1401173 0.32163206 0.15160751 -0.24622001 0.254142
-0.042757805 -0.08485277 0.38277122 -0.28157657 0.04197932 -0.03766174 0.35703233 0.14394747
0.16645657 0.24017721 0.052725937 -0.06626966 -0.28068948 0.25064877 0.43219075 0.31533965
-0.24301735 -0.03474777 -0.32188585 -0.19563462 -0.20313326 0.09897732 -0.291015 -0.036667388
0.014235869 0.34547752 -0.12991811 -0.23264772 -0.19109897 0.31078255 0.021878311 0.3753208
0.12268855 0.078589626 0.05227189 -0.06873388 0.042362697 -0.06918186 0.0504161 0.061603736
-0.28118256 -0.094750226 0.4017076 -0.28047377 -0.021033311 0.39168936 0.25404432 0.064476736
-0.31559944 0.23768216 -0.16265863 -0.10149409 -0.12200506 -0.024444586 0.09063136 0.32852274
0.03791245 0.37013245 0.28948015 -0.22440833 0.15625867 -0.22283581 -0.06983161 0.13773976
0.10535635 0.32902768 -0.022692375 -0.0014083697 0.17731273 -0.3155035 0.34936884 -0.25654677
0.0026305036 -0.17887127 -0.32601646 0.034400653 0.27553463 -0.16981293 -0.36041415 -0.21141312
-0.35535356 0.25275075 -0.054172955 -0.23270246 -0.19832784 0.2523945 0.3096255 0.33207235
0.13622381 -0.21316826 -0.21981733 0.10182468 0.28786948 0.049570136 -0.29397038 -0.22509778
-0.33815145 0.0015364551 -0.2972465 -0.32389894 0.29912198 -0.27117288 -0.1424467 0.051554386
00000000: 09e2 92bd 9886 a43d 304a cb3e e0b2 a9be
00000010: 0452 71be cc5b 9fbd 6d52 82bd 4eca a63e
00000020: 0004 71be abbd 51be 8702 95be 9085 afbe
00000030: bd42 5fbe 73e2 903e 4a8d d53d 1ad8 143e
00000040: d14e a73c acea 72be 01c5 7abb 14cf a8be
00000050: c179 85be 78c5 58be bcc3 1b3e 8073 303e
00000060: 5442 22be 7d35 af3d 7535 b03e eecf b53e
00000070: 3c1f 1b3e 7cd6 d03d c89f b93e 8089 12be
00000080: cfa6 893d 2a47 c1be d4a0 bebe 05e0 43be
00000090: f1d5 183e 4af7 b23d db20 b1be 7600 213d
000000a0: adb4 453e 88f2 dfbc e0f3 033d 789b a23d
000000b0: 62ca 623e 8939 b33e 1f2f 82be 332e f2bd
000000c0: c1b9 133e b8b6 823e c33f 8a3e 86fb 9f3e
000000d0: 4cd2 8f3d 9a3c a6be 0e2b 45bc 1377 79be
000000e0: fe51 a7be cae4 d43e 372d c93e 30c0 afbe
000000f0: d97b a43d de69 53bb b34f 9b3d 3aa0 c0bd
00000100: 3532 0e3e 189f a5be 6dd1 f6bb 7b06 2c3e
00000110: af9c 773e 1b84 963d 7097 ffbe 2026 9bbe
00000120: 7cc6 303e 0548 243e 37e2 25be e31d 48be
00000130: 225f ad3e a4b0 8f3e 9e99 1dbd 7e67 0cbd
00000140: b184 a8be 19d9 38bd bcb8 a6be c3d7 89be
00000150: 642b 84bc e375 173d 167f 4fbe 8f45 413e
00000160: c3b7 5cbe 67fc de3e dc99 c33e 3c04 93be
00000170: 6a64 98bd b484 9c3d 437b 4b3e c706 223e
00000180: a4fb 0f3e e7fc 7cbd eff7 8fbe 72aa 253e
00000190: 606f b0be 8eb1 80be 433b 51be 5029 65be
000001a0: 5b36 02be db5d ccbe 32d4 50be e8e6 813d
000001b0: 7127 7dbe 22cc a0bd efd7 e53d a22c e0bd
000001c0: aaad c33b eabf 963d c661 4e3e dbdc 6c3e
000001d0: eb02 b03e 9338 8f3e 8aa2 f13e c5f8 2e3d
000001e0: 845f 9ebe e7af 83be d707 033e 6b54 3ebb
000001f0: 3a9d 35be 56ff a0be 6529 e7be 0cf5 b4be
00000200: 2f7f 89bd d551 cf3d c85d 943d 3a0f b1be
00000210: b115 5c3e 4b03 a5be d958 4ebe f0f4 4dbe
00000220: 516e 7dbd b917 29be 52eb debe 8c19 9dbe
00000230: 3781 7ebd 0389 3bbd 11b7 92be cd65 933d
00000240: 4c62 a4be 0ce1 d93c ccb2 c13e e97a 0fbe
00000250: f5ac a43e 003f 1b3e 1921 7cbe e61e 823e
00000260: cf22 2fbd 4ac7 adbd 97fa c33e ce2a 90be
00000270: 82f2 2b3d 3243 1abd f1cc b63e f766 133e
00000280: 9773 2a3e 04f1 753e 27f7 573d 63b8 87bd
00000290: 88b6 8fbe 0955 803e 1b48 dd3e 3374 a13e
000002a0: 8ad9 78be ad53 0ebd 39ce a4be 7154 48be
000002b0: 2a02 50be 9fb4 ca3d ebff 94be 8b30 16bd
000002c0: 903d 693c 6ee2 b03e 4109 05be 343b 6ebe
000002d0: 73af 43be e41e 9f3e 253a b33c 0c2a c03e
000002e0: 2244 fb3d 99f3 a03d 0d1b 563d 59c4 8cbd
000002f0: 8284 2d3d 38af 8dbd 1d81 4e3d 3354 7c3d
00000300: 29f7 8fbe 680c c2bd 9eac cd3e 429a 8fbe
00000310: 0d4e acbc 828b c83e 1912 823e 610c 843d
00000320: 4096 a1be f462 733e fc8f 26be 22dc cfbd
00000330: cadd f9bd 0340 c8bc ef9c b93d 2234 a83e
00000340: 164a 1b3d 0082 bd3e be36 943e 4ccb 65be
00000350: 4602 203e 122f 64be e003 8fbd a70b 0d3e
00000360: 12c5 d73d 5176 a83e 5ce5 b9bc 0c99 b8ba
00000370: 7891 353e ad89 a1be 79e0 b23e 195a 83be
00000380: 8764 2c3b 082a 37be a1eb a6be b3e7 0c3d
00000390: e012 8d3e 71e3 2dbe 3488 b8be ae7c 58be
000003a0: e7f0 b5be 8c68 813e 76e4 5dbd 8e49 6ebe
000003b0: 7416 4bbe da39 813e 3c87 9e3e 6305 aa3e
000003c0: 417e 0b3e c848 5abe cb17 61be 7589 d03d
000003d0: a163 933e 0e0a 4b3d 4983 96be 0880 66be
000003e0: 3022 adbe e162 c93a b130 98be 15d6 a5be
000003f0: 8426 993e 2cd7 8abe 8cdd 11be b12a 533d

2.bias f4 [32]
-0.0058028637 -0.24021971 -0.2866356 0.28283516 0.059693996 0.2948366 -0.112661146 0.108126976
-0.074231684 -0.023255106 -0.2085359 0.11715203 0.11282219 -0.009933649 -0.08375914 -0.20947655
0.24981901 -0.25877488 0.14029917 -0.120028816 -0.17586055 0.06996827 -0.18512568 0.074370585
0.061864927 -0.27206773 0.05500607 0.13853183 0.13856108 -0.04831418 -0.28130376 -0.059135355
00000000: f325 bebb 28fc 75be e7c1 92be c5cf 903e
00000010: b181 743d d3f4 963e e3ba e6bd ad71 dd3d
00000020: c806 98bd 7e81 bebc 6f8a 55be 67ed ef3d
00000030: 520f e73d bec0 22bc e989 abbd 0581 56be
00000040: 8ed0 7f3e 247e 84be 96aa 0f3e abd1 f5bd
00000050: ca14 34be 864b 8f3d 9691 3dbe 9b4f 983d
00000060: 1466 7d3d 764c 8bbe 0b4e 613d 4adb 0d3e
00000070: f5e2 0d3e 17e5 45bd 0c07 90be ea37 72bd
