Models/DemographicFCNN.pth (torch, 6791 bytes, 9 tensors)

0.weight f4 [8, 2]
000000 df 70 51 bf e4 1d 51 3e 21 a8 36 bf 5a df ca 3e
       -0.8181285 0.20421559 -0.71350294 0.3962353
000010 96 7f 4a bf b1 d1 d3 3e b4 65 52 bf 93 bc 16 bf
       -0.7910093 0.4137092 -0.82186437 -0.5888149
000020 72 5e 9a 3d fe 22 1f 3f 44 64 42 bf 49 63 99 be
       0.07537545 0.6216277 -0.75934243 -0.2995856
000030 21 56 42 3f 09 15 68 bd 26 a6 d5 3e e9 23 2e bf
       0.7591267 -0.056660686 0.41728324 -0.68023545

0.bias f4 [8]
000000 79 c4 ff bd b8 1d 80 be 1f de 1c 3f bb 79 a8 3e
       -0.12488646 -0.25022674 0.6127643 0.32905373
000010 b1 2d e7 be fb 36 37 3e 38 20 e1 3d 3d d9 37 be
       -0.45152047 0.17892067 0.10992473 -0.17953964

2.weight f4 [32, 8]
000000 e7 17 52 be 6f 5c e6 bd 29 72 b1 3e 7e 05 80 be
       -0.2051693 -0.11248099 0.3465741 -0.2500419
000010 80 1f 17 be e5 4d ed bd 75 a7 1a 3e 65 75 53 3e
       -0.1475811 -0.11587123 0.15102942 0.20650251
000020 49 36 d9 bd 3a d5 52 be c2 f3 5b be 31 b5 ee bd
       -0.10606057 -0.20589152 -0.21479705 -0.11655653
000030 a6 05 80 bd 72 98 5a 3e f5 58 4c be 09 c9 f0 bd
       -0.06251077 0.21347216 -0.1995581 -0.117570944
000040 e4 2a 06 be c3 1a ad 3d 11 bd b6 3e e3 c6 eb 3e
       -0.13102299 0.0845237 0.3569112 0.46050176
000050 09 67 c8 be f3 e8 10 3e 8f 71 19 3e c0 37 56 3e
       -0.3914111 0.14151363 0.14984725 0.20919704
000060 c9 eb d7 3e 90 68 dc 3d 7c 28 0e be 04 09 cb 3e
       0.42172077 0.10762131 -0.13882631 0.39655316
000070 98 c8 3b be de 81 ad 3e 3b cb cc bd 86 e6 19 3e
       -0.18338239 0.33888143 -0.09999701 0.15029344
000080 41 d0 a2 3e 63 52 a8 3e 47 bd a4 be 40 7b 6f be
       0.3179951 0.32875356 -0.32175657 -0.2338686
000090 6b 2f 32 be 58 df 66 be 75 dd 9b 3e 21 fb 75 bd
       -0.17400901 -0.22546136 0.30442396 -0.06005395
0000a0 aa 27 70 be 77 1a 21 be 33 fa 47 be 3c b5 13 3e
       -0.2345263 -0.15732752 -0.19529037 0.14424604
0000b0 f2 e4 9d be 72 c8 a8 be 1c 71 b2 be ca dd 1b 3e
       -0.30838734 -0.32965428 -0.3485192 0.15221325
0000c0 27 1d 98 3e 0f fd b4 bd 45 92 3a 3e a4 44 b9 3e
       0.2970974 -0.088373296 0.1821986 0.3618518
0000d0 65 d9 bd 3d ac 60 07 3d ab 59 b9 3d 60 65 ee 3c
       0.0926998 0.033051178 0.09050306 0.029101074
0000e0 8d be ab 3e 3d b7 be bd 47 cf 8c 3e ed bb ba 3e
       0.33543816 -0.09312294 0.2750189 0.364715
0000f0 94 09 93 be aa 67 e9 3e 2b b6 9c 3e b9 28 9c bd
       -0.28718245 0.45586902 0.30607733 -0.07624955
000100 5c cf ca bd 8a 6c 34 3e 72 d0 8d be cc 2b 0f 3e
       -0.09902832 0.1761953 -0.27698094 0.13981551
000110 40 ee a8 3d 26 34 64 3e 10 3c 9d be 5b 63 96 be
       0.082485676 0.22285518 -0.30709887 -0.29372677
000120 22 9a 22 3e 04 69 02 3e 97 7c a8 be f1 e4 49 be
       0.1587911 0.12735373 -0.32907555 -0.1971624
000130 f9 a0 a5 be b8 af 81 be 0a 5a 23 be eb cc 95 3e
       -0.32349375 -0.25329375 -0.15952316 0.29257903
000140 6c 4b 56 3d 27 d0 9d 3e 17 97 c1 3e 8d 10 96 3e
       0.05231802 0.3082287 0.37810585 0.29309502
000150 cb b7 c4 be e9 39 a0 3e db 99 44 3d 46 9a 8d 3e
       -0.38421473 0.31294182 0.04799829 0.27656764
000160 ab 2c 83 be b6 4e 96 3e d8 1f a3 3e 93 06 5c be
       -0.25620016 0.29356927 0.31860232 -0.21486883
000170 08 ed 32 bd e0 cf d3 3e ff 67 ad be 70 95 ed 3d
       -0.043683082 0.41369534 -0.33868405 0.116007686
000180 ac 19 95 3e bc de 5a 3e 61 4c d8 3e 8e 24 df 3e
       0.2912115 0.21374029 0.42245772 0.43582577
000190 3f 31 64 3e c1 53 d2 3d fa 8e 49 3e b8 b1 a8 be
       0.22284411 0.10269881 0.19683447 -0.3294809
0001a0 9c ed 32 bd ec 8f 77 3d bf bf 6e 3c 9f aa f9 3e
       -0.043683633 0.06043999 0.014572083 0.48762986
0001b0 50 62 0b 3e 32 97 c6 3e b8 92 88 3e 26 cd 7f be
       0.13611722 0.38787228 0.26674438 -0.24980602
0001c0 7f 7a df 3d 69 bf 53 3e ca 8c 69 3e bf a7 a2 3e
       0.10912036 0.20678486 0.22807613 0.31768605
0001d0 19 37 4d bd 5b 5c 19 3d dd e6 d7 3e d5 d4 b4 3c
       -0.050101373 0.037441593 0.42168322 0.022074142
0001e0 41 f2 c4 bd 7b ac c0 3e 12 7b ad 3e 4a f7 72 3d
       -0.09616519 0.37631592 0.33882958 0.059317864
0001f0 18 b2 f7 bd 4f 24 c4 bd 0c 76 bb be fc 24 08 3e
       -0.120945156 -0.09577238 -0.366135 0.13295358
000200 f0 e7 89 be 0c d5 6e 3e d7 08 2b be b5 82 42 3c
       -0.26934767 0.23323458 -0.16702591 0.011871983
000210 bc 58 d5 3d 7a 90 5e 3e d8 38 dd 3e 9e 67 ba 3e
       0.10417315 0.21734801 0.4320743 0.3640718
000220 36 5e 1f 3e 6b 2c 26 be 48 46 81 be 35 f1 a1 be
       0.15563282 -0.16227882 -0.25248933 -0.3162934
000230 a0 ab 8f 3c 2b 91 af 3e 74 88 89 bd 60 dc 73 bc
       0.017537892 0.34290442 -0.067154795 -0.014884084
000240 b0 8b 83 be 7c 4c de 3d ca 86 65 3e 47 78 b2 be
       -0.2569251 0.10854432 0.22414699 -0.3485739
000250 62 eb 7e be 19 15 86 3e 94 6f ab 3d d0 92 b4 bc
       -0.24894479 0.2618797 0.08370891 -0.022042662
000260 50 6f 81 3d 20 2e 5c bd 66 0d 7d be 5e 26 a9 be
       0.06320059 -0.053754926 -0.24712142 -0.33037084
000270 9e 1d 6e 3e 18 3d 2c bd e0 74 06 be 34 e5 ba bd
       0.23253486 -0.04205045 -0.13130522 -0.09125748
000280 d8 76 45 be ac 75 d6 bd 87 ee a1 be f3 76 87 3e
       -0.19283617 -0.10471663 -0.31627294 0.2645794
000290 f4 d5 13 3e 78 95 36 be 66 5f 15 be 78 85 0f 3e
       0.14437085 -0.17830455 -0.14587173 0.14015758
0002a0 bb 65 d8 bd 6c a1 fe 3d 64 cf 3d 3e f2 56 4d be
       -0.105662785 0.124331325 0.18536144 -0.20052698
0002b0 95 1d 48 3e 29 b1 22 3d d2 24 eb 3e c8 af 2a ba
       0.19542535 0.039719734 0.4592653 -0.0006511179
0002c0 e7 1e 25 be a5 f0 80 3e 7c 68 50 be 99 3b d3 3d
       -0.1612507 0.25183597 -0.20352358 0.10314102
0002d0 56 be dc 3e 15 88 ec bd 9b b2 fa 3e 86 be e0 3e
       0.43113965 -0.11549393 0.4896439 0.43895358
0002e0 17 68 ee 3e e1 0d bc 3d 98 ca c8 3e 3f 1a 23 bc
       0.4656379 0.09182335 0.39217067 -0.009954988
0002f0 89 b2 48 be f5 3a 8f 3e f9 58 8a 3d 4f 94 8f 3e
       -0.19599356 0.27974668 0.067552514 0.28042838
000300 e6 d0 b6 3e a9 a9 67 be cd bd 43 3e 5a e0 55 3e
       0.35706252 -0.22623314 0.19115372 0.20886365
000310 78 92 a6 3d c1 ad 74 3e 83 6d 07 be d9 11 8f be
       0.081334054 0.23894407 -0.13225369 -0.27943304
000320 2e f3 4e 3e 52 df 8a be 98 e4 51 3e 54 af da be
       0.20209953 -0.27123505 0.20497358 -0.4271189
000330 7f 1b 1b 3d e4 61 b4 bd 08 13 58 3e 97 97 11 3e
       0.03786802 -0.08807734 0.2110101 0.14217983
000340 ee ee 1d 3e 6f ca 46 bc 69 fd 72 3d 97 fe cc 3e
       0.15423176 -0.012133225 0.059323702 0.40037987
000350 59 4d 9f be 67 00 16 3d df 5b 78 be 5f 93 78 3e
       -0.311137 0.036621477 -0.24253796 0.24274968
000360 9c b6 8b 3e 1d 04 00 bd f9 e8 c4 bd b8 86 79 be
       0.27287757 -0.031253923 -0.096147485 -0.24367797
000370 e3 80 a4 3e 33 96 70 bd ba c4 e7 3e 94 39 a7 3e
       0.32129583 -0.05873699 0.45267278 0.32661116
000380 91 75 ea 3e 5c aa d5 3e 87 83 ce bd 5d c3 89 3e
       0.4579282 0.41731536 -0.100836806 0.26906863
000390 f8 5d 22 be b3 bb ad 3e c2 13 a5 bd b0 bb fa 3c
       -0.15856159 0.33932266 -0.08060409 0.030607074
0003a0 62 87 90 be 00 50 ad be 1f 50 27 3e f5 68 fa 3c
       -0.2822829 -0.33850098 0.16339158 0.030567626
0003b0 27 39 f7 3d f9 aa 3c 3e 76 40 a3 bc 95 76 77 3e
       0.12071448 0.18424596 -0.019928198 0.24166329
0003c0 46 d3 a2 bd 7b 06 36 3e 2a 85 0b 3c 68 9c c3 3e
       -0.079504535 0.1777591 0.0085156355 0.38205266
0003d0 b9 33 85 3e ce df df 3e 3d 8e fa 3c de 7d 55 3e
       0.26016024 0.43725437 0.030585403 0.20848796
0003e0 05 dd b4 be ab 5e 54 be d0 68 81 3d 80 38 01 3b
       -0.35324875 -0.20739238 0.063188195 0.0019717515
0003f0 06 1d 8e be 15 3e 20 be 77 17 29 be db 58 b3 be
       -0.27756518 -0.15648682 -0.16512857 -0.3502873

2.bias f4 [32]
000000 03 56 1e 3e 5a e3 a8 3e 1d 87 eb 3d 2d f7 b0 bd
       0.15462498 0.32985955 0.1150038 -0.08640895
000010 86 28 b7 be d0 0a 92 be aa 8a ad 3d c7 ae 82 3e
       -0.35773104 -0.28523874 0.08473714 0.2552397
000020 a0 9d 12 be 64 00 45 be e7 ab 52 be 42 32 47 bd
       -0.14317942 -0.1923843 -0.20573388 -0.048631914
000030 04 e9 aa be d4 b8 59 be 82 5e f8 3e 35 d5 e7 bd
       -0.33380902 -0.21261913 0.48509604 -0.11319963
000040 2e df aa 3d 98 ba c1 bd d0 06 9f be b8 4c 7f bd
       0.083433494 -0.09459418 -0.31059885 -0.062329024
000050 70 cf a6 3d c7 ee 82 bb 4a 88 ec 3d d6 b5 6e 3c
       0.08145034 -0.0039957496 0.115494326 0.01456972
000060 3c 59 ae be b5 04 ab 3e 51 03 50 3e f6 d0 a5 3e
       -0.34052455 0.3340203 0.20313765 0.32385987
000070 1b 59 c9 bb 20 8d 8d 3e 1d d4 84 be 88 20 b3 bd
       -0.0061446554 0.27646732 -0.2594308 -0.08746439

4.weight f4 [16, 32]
000000 5e ed 85 3d d8 9a 12 3d 13 69 18 3e cf 64 32 bd
       0.06539415 0.0357922 0.14883833 -0.04355317
000010 17 b1 c1 3c 6c 14 51 bd 3e 91 cf bd a6 06 4e 3d
       0.023644013 -0.051044866 -0.101351246 0.05029931
000020 da 68 19 be 32 1b d3 3d 54 20 fe 3d 59 a1 4f 3e
       -0.14981404 0.103079215 0.1240851 0.20276393
000030 46 34 01 bd c3 d2 85 3d 94 60 09 3e 2c dc 69 3e
       -0.031543992 0.0653434 0.13415748 0.22837895
000040 da 00 98 3e 8b 5e bb bd a3 07 1a be 8e 26 23 be
       0.2968815 -0.09148892 -0.15041976 -0.15932676
000050 df 5c 97 bd ed 4a 95 3e b1 16 48 3e f6 66 63 3e
       -0.07390761 0.29158726 0.19539906 0.22207245
000060 29 23 21 3e 97 0b bc 3d 9c 63 7c bd 8b ec 9a 3e
       0.15736069 0.09181898 -0.061618432 0.30258593
000070 9b 8a 40 3e f8 7c 24 3e 19 bf 0b bd 71 9a 0e 3e
       0.18802874 0.16063297 -0.03411779 0.13926102
000080 20 ce 83 3c 6a 64 ef 3d 56 1a 97 3d de 3e c0 3d
       0.016089499 0.11689074 0.0737807 0.09386991
000090 12 d7 1e be 5e be c8 bd f6 23 d9 3d ec d9 16 bd
       -0.1551173 -0.09801935 0.10602562 -0.03682892
0000a0 b0 7b 1d be 6d 9e 24 3e 80 89 7a bb 7f 06 12 3e
       -0.15379214 0.1607606 -0.003822893 0.1426029
0000b0 de 7c 0d be 9c 4b 79 3d 5f 5e 88 bd f7 59 98 bd
       -0.13817164 0.060863122 -0.06658625 -0.074390344
0000c0 48 05 17 bd d4 01 86 bd fe 61 c6 3d f4 92 09 bd
       -0.03687027 -0.065433174 0.09686659 -0.03358741
0000d0 87 40 09 3e e4 38 25 3d 10 c3 df bc 02 1d d1 bd
       0.13403521 0.04033746 -0.027314693 -0.10210611
0000e0 28 c1 25 be c0 3a 53 bd 2f a1 27 be 78 26 06 bd
       -0.16186965 -0.0515697 -0.1637008 -0.03275153
0000f0 40 5a 3d 3b 30 a6 3a bc ea d6 b1 bd 22 47 fb 3d
       0.0028892905 -0.011392161 -0.0868357 0.12269427
000100 92 e4 cb 3d 64 65 32 bd 29 0b 8f bd 32 9c e3 3d
       0.09955706 -0.043553725 -0.069845505 0.11113776
000110 c1 7d 1d 3e 8f bf 25 be 90 71 1c bd 50 64 86 bc
       0.15380003 -0.16186355 -0.03819424 -0.016405255
000120 7e 14 83 bd b1 89 1a 3e b0 e8 d5 bc 1b 7a 19 3e
       -0.06400393 0.15091588 -0.02611193 0.14987986
000130 00 17 65 3a 48 15 9d bc 81 2d d3 bd a6 c2 70 bd
       0.0008739084 -0.019175187 -0.103114136 -0.05877938
000140 b4 51 69 3d ae 24 a0 3d 20 1a ce bb a5 7b 2c 3e
       0.056962684 0.07819496 -0.0062897354 0.16844042
000150 30 94 fa bd 7c cf 8a 3d 2b 0a 23 3e 00 cf fb bc
       -0.12235296 0.06777856 0.15921848 -0.030738354
000160 81 b6 0f 3e c0 f9 3e 3b 2e 8e 07 be cf 9e c6 bd
       0.14034463 0.0029140562 -0.13237831 -0.09698259
000170 a4 c1 86 3d fe ab 9c bd 0c 26 2e 3d 53 2b 32 3e
       0.06579903 -0.076499924 0.042516753 0.1739934
000180 dc 63 55 3d 9a ae b7 bc 2f 23 13 3d 19 96 d0 bd
       0.052097186 -0.022422124 0.035922226 -0.10184879
000190 41 a5 18 be 79 12 08 be 6d 53 20 be 75 d0 e5 3c
       -0.1490679 -0.13288297 -0.15656824 0.028053502
0001a0 c0 09 0d 3d d7 da 99 bd 10 61 36 be e3 15 b8 3d
       0.034433126 -0.075124435 -0.17810464 0.089885496
0001b0 48 1d d2 bd 20 c4 f1 bc 6b 48 20 be 23 85 d1 bd
       -0.10259491 -0.029512465 -0.15652625 -0.10230472
0001c0 96 ea 90 3d 1c a9 28 be e5 72 ce bd 35 b7 07 3e
       0.07075994 -0.1647076 -0.10080508 0.13253482
0001d0 df 2d c0 bd 0a bc 9f bd 45 e7 5b bd 66 c5 8a 3d
       -0.09383749 -0.077995375 -0.053687353 0.06775932
0001e0 b5 e2 ee bd a8 c2 17 3c 5d 59 83 3d 90 7e a7 bc
       -0.11664335 0.009262718 0.06413529 -0.020446092
0001f0 3c ed 02 3d f3 51 12 be 6e ad a3 3d f4 4d 87 3d
       0.031964526 -0.14289074 0.079920635 0.06606665
000200 28 a5 b5 bc f5 ad 15 be 7e ce 90 3d ca 3e ec 3d
       -0.02217348 -0.1461714 0.07070635 0.115354136
000210 30 4b fd bc 7a a4 aa 3d 64 31 86 3d c1 cd 90 bd
       -0.030919641 0.08332153 0.06552389 -0.070704944
000220 10 10 49 bc 91 31 34 3e 00 c7 5a 3a a8 1c 10 be
       -0.012271896 0.17597033 0.00083456933 -0.14073431
000230 10 39 53 bc 92 1c b4 3d 20 5b 6c bd fc 97 bd bd
       -0.012892023 0.08794512 -0.05770409 -0.09257504
000240 ab 1e 15 3e ce 85 bf 3d 00 08 f6 bc 20 f8 13 3c
       0.1456248 0.09351693 -0.030033112 0.009031326
000250 28 29 99 bc 18 1b 28 3d e0 dd cd 3b 0f 15 db bd
       -0.018696383 0.041041464 0.006282553 -0.10697376
000260 24 27 06 3d 20 81 97 3b b0 41 3b 3c f3 f7 89 bd
       0.03275217 0.004623547 0.011429235 -0.06736746
000270 64 86 39 3d 6d 61 12 be 88 71 58 3d b6 2f c4 3d
       0.04529418 -0.14294977 0.052842647 0.09579413
000280 05 23 12 be 18 de 5b be 0d d6 9a 3d 6e 64 3c 3e
       -0.14271171 -0.21471441 0.07560358 0.18397686
000290 8d 63 2f be bb 08 00 be 06 70 89 3e 48 b0 59 3e
       -0.1712782 -0.1250333 0.2684328 0.21258652
0002a0 96 a4 c8 3d 32 ce fa 3d 03 4d 50 3e 51 26 31 3e
       0.09797017 0.1224636 0.20341878 0.17299773
0002b0 e4 8c 82 3e d9 a3 23 3e 4e c8 01 bc 57 10 55 3e
       0.25498116 0.15980472 -0.0079212915 0.20807014
0002c0 99 e5 ec bd dc 92 eb bd b8 5c 0c be b6 7a ca 3d
       -0.1156723 -0.115026206 -0.13707244 0.098866865
0002d0 0c e9 04 3e 26 df 06 bc 4f 02 cd bd 2b f7 67 3e
       0.12979525 -0.008231914 -0.10010206 0.22652881
0002e0 65 d8 0a bb 3f 0b 60 be 5f 54 a7 bd d2 93 52 3b
       -0.002118611 -0.2187929 -0.081703894 0.0032131565
0002f0 64 0e 27 3e 18 bd ef bd 59 08 85 3e e2 85 87 bd
       0.16314083 -0.11705989 0.2598293 -0.06617333
000300 39 70 bd 3c 0c ff 31 3e 2c 43 e2 3d cd 77 54 be
       0.023124801 0.17382449 0.11047968 -0.20748825
000310 73 10 92 bd ba bf a9 3d 4e b8 51 3e 34 16 cf 3d
       -0.07132044 0.08288522 0.20480463 0.10111657
000320 ba d8 b5 bd b6 d1 ae 3d 04 e6 70 3c 37 d0 f1 bd
       -0.08879228 0.08536093 0.0147032775 -0.11807292
000330 94 e7 00 be a2 80 8c bd 2c 8d 66 3e 85 b8 19 bd
       -0.1258834 -0.06860472 0.2251479 -0.037529487
000340 50 c5 61 3e 15 37 e0 bd 37 39 2d 3e f9 fb 00 3e
       0.22047925 -0.10948006 0.16916357 0.1259612
000350 e4 5d 0e 3d 17 e6 6a 3e 21 86 4d 3e 6d f0 49 bd
       0.03475751 0.22939335 0.20070697 -0.049301554
000360 37 a4 95 bd 14 1e 39 3e c1 97 61 3c b8 90 9f 3e
       -0.07306712 0.1807788 0.013769091 0.311651
000370 37 73 f3 bd 7a e6 4e bd 7a 4d 45 be 55 00 28 be
       -0.1188721 -0.05051277 -0.19267836 -0.16406377
000380 dc 3e 89 3e 08 6f 92 3c 5f f8 5d bd 35 50 e3 bd
       0.2680577 0.01787521 -0.054191943 -0.11099283
000390 d8 27 95 bd 90 1e bd bd 6a e1 10 3e 09 16 60 bd
       -0.0728299 -0.09234345 0.14148489 -0.054708514
0003a0 12 bc aa 3d 9b 01 04 3e e7 2f e4 bc 44 34 da 3d
       0.08336653 0.12891237 -0.027854873 0.106545
0003b0 a5 d3 0a be 27 ce 07 3d 26 e7 8e 3e c3 db 59 3d
       -0.13557298 0.033155587 0.27910727 0.053188097
0003c0 b9 c8 98 3e 40 c8 33 be 30 02 9f bc 80 de 0f 3d
       0.2984064 -0.17556858 -0.019410223 0.035124302
0003d0 ae 35 0e be a4 46 77 3e a0 92 9a 3d a3 e0 b9 bc
       -0.13887665 0.24148041 0.07547498 -0.022690123
0003e0 0e 1b 5d be 4a a6 46 3e 79 01 a3 bd 45 ff d3 3d
       -0.21592352 0.19399372 -0.07959265 0.10351423
0003f0 65 b5 1f 3c 9a 95 68 3e 93 9f 74 bd 4e 0e 87 bd
       0.009747838 0.22713318 -0.059722494 -0.06594525

4.bias f4 [16]
000000 23 fe 1e bc a9 e6 24 be 94 f0 11 bd 01 90 80 3d
       -0.009704146 -0.16103615 -0.035629824 0.062774666
000010 98 6a 09 be 85 b1 1b bd fd e0 52 3d 09 17 45 3e
       -0.13419569 -0.038011093 0.051484097 0.19247068
000020 33 6e 84 3e 72 b8 99 3d d2 22 c3 bd 6d 8e 14 be
       0.25865325 0.07505883 -0.09528126 -0.14507456
000030 21 d2 01 be da 57 08 3d ec a4 ca 38 9f dc 95 3d
       -0.12677814 0.033286907 9.66283e-05 0.07317471

6.weight f4 [8, 16]
000000 71 29 9e 3d 98 8a 03 3e 86 13 64 be db 0d 94 3d
       0.07722748 0.12845838 -0.22273073 0.07229205
000010 ee 85 78 3e 56 26 a1 be df 88 d8 3c 90 03 99 3e
       0.2426984 -0.3147456 0.026432453 0.2988553
000020 c4 0c ed 3b d5 db d0 3c e7 92 92 3d 19 c9 1e 3c
       0.007234188 0.02549545 0.07156926 0.0096915
000030 d9 59 f8 3b cb 2d 83 bd 6a 35 01 3e d4 78 1e 3e
       0.00757907 -0.06405219 0.12618032 0.1547578
000040 af 67 a3 3d 30 46 1c 3d 38 60 04 3e eb 4b 1a 3e
       0.079787605 0.038152874 0.1292733 0.15068023
000050 ec 05 d2 bd 70 ff 07 3e 47 99 69 bc 80 93 6e be
       -0.10255036 0.13281035 -0.014257736 -0.23298454
000060 3e 78 9a 3e 6a 02 99 be 36 60 93 3e c4 cc 2e be
       0.30169863 -0.29884654 0.2878434 -0.170703
000070 53 eb 4b 3e df ae 26 3e 0e 24 3d 3e b5 d8 19 bd
       0.19913988 0.16277646 0.18470785 -0.037560184
000080 7d 48 2f 3e 8a d1 37 be e4 b6 2c be 8c 46 5c be
       0.17117496 -0.17951027 -0.16866642 -0.21511286
000090 a0 94 1d be 23 1a 42 3e 6d 8b 84 be e4 58 ac bd
       -0.15388727 0.18955283 -0.25887623 -0.08415392
0000a0 e4 04 d5 3d c6 a5 78 3d 33 34 b3 3d d3 c9 71 bd
       0.104013234 0.06070497 0.087501906 -0.059030365
0000b0 10 66 a0 3e f2 0e a5 bd 5d 2c d8 3e bd 0d e0 bd
       0.31327868 -0.08059491 0.42221346 -0.1094012
0000c0 20 7a df 3d 48 9d 72 bd 38 df ee 3d 88 2e c4 3d
       0.10911965 -0.059232026 0.11663669 0.09579188
0000d0 c6 53 08 be 7d fb a6 3e 9d ca 9d bd f7 4d e6 bd
       -0.13313207 0.32613745 -0.07704661 -0.11245339
0000e0 11 64 fd 3d 0a 4b 0c 3e 86 eb d2 3e 42 19 06 3e
       0.12372602 0.137005 0.41195315 0.13095573
0000f0 e5 d4 4e 3e 0a 13 27 3e c6 77 7e 3d 95 b4 17 be
       0.201984 0.16315857 0.062125944 -0.1481498
000100 9f e0 08 be 78 b0 25 be e0 24 dc 3d 00 8a c2 3c
       -0.13366936 -0.16180599 0.10749221 0.023747444
000110 3c 2c af bd b7 9e c6 bd 00 6e a2 bb 92 80 5b 3e
       -0.08553359 -0.09698241 -0.0049569607 0.21435764
000120 25 d6 24 3e 58 d2 4c be e4 ff a2 3c b5 21 b4 3d
       0.16097315 -0.20002115 0.019897409 0.087954916
000130 61 3f 9b 3c 80 9a 0b bd 46 53 71 bb 2f 2a 3b 3d
       0.01895112 -0.03408289 -0.0036823316 0.045694526
000140 1e 62 b3 3e 86 5b 75 be a4 4a c2 bd 75 0a 27 be
       0.35035795 -0.23960695 -0.09486893 -0.16312583
000150 20 5b f8 bd ad b3 9c bc a3 1c 9d 3e 85 f8 56 bd
       -0.12126756 -0.019128645 0.3068591 -0.0524831
000160 b2 3a 5a 3e d7 56 bb 3e 67 fc 54 be 40 ba 32 3d
       0.21311453 0.3658969 -0.20799409 0.043634653
000170 6d 4c fc bd bf da 85 3d 81 0a 3b be 04 c0 a4 bd
       -0.123192646 0.06535863 -0.18265726 -0.080444366
000180 e2 5e 2b be 7a 7a 55 be aa 4a 4c 3e 80 50 01 bd
       -0.16735414 -0.20847502 0.19950357 -0.03157091
000190 80 43 e3 bb 8c ce fe bd ca 6e 32 3e 10 87 12 be
       -0.006935537 -0.124417394 0.17425075 -0.14309335
0001a0 a8 15 cf bd 5c d6 47 be f2 43 57 be 6e 46 63 3e
       -0.101115525 -0.19515365 -0.21022013 0.22194836
0001b0 9e ae 45 be 30 5f 0d bd 20 34 94 bd 10 8a bb 3d
       -0.19304892 -0.034514606 -0.072365046 0.09157193
0001c0 c8 57 19 3e 4e 3f 44 be 34 e8 65 3e 68 d0 79 be
       0.14974892 -0.19164774 0.2245186 -0.24395907
0001d0 30 8f ca 3c 54 9b f8 bd 29 41 c7 3d 30 c8 9d 3e
       0.02472648 -0.121390015 0.09729225 0.30816793
0001e0 7f 14 72 3e f7 eb 42 3e 3f ae 52 be b6 52 3e 3e
       0.23640631 0.19035326 -0.20574282 0.18586239
0001f0 f8 33 03 3e 76 84 68 3d c1 fd 28 be 0e c8 ff 3c
       0.12812793 0.05676695 -0.1650305 0.031223323

6.bias f4 [8]
000000 72 ac 95 3e 78 0d 0e 3b de cb 81 bd 0e 48 1c be
       0.29233128 0.0021675508 -0.06337713 -0.15261862
000010 10 c6 34 be 0f bd 80 3e 20 3c 10 bc 32 10 51 3d
       -0.1765368 0.2514424 -0.008803397 0.051040836

8.weight f4 [1, 8]
000000 08 ab 65 3e d0 da c3 be 24 f8 57 be ee 33 92 be
       0.22428524 -0.38252878 -0.21090752 -0.28555244
000010 9d ef 16 3e d6 e0 cf 3e aa 53 63 3e b0 89 cb 3e
       0.14739843 0.40601224 0.22199884 0.39753485
