models/TabularModel.pth (torch, 12695 bytes, 6 tensors)

weight f4 [8, 2]
0.10094843 0.3421264 -0.68564487 -0.45015672 -0.3504697 0.24941415 0.07306034 0.50812376
0.044937532 0.17096095 -0.26264575 -0.09001285 -0.77178586 -0.40285438 -0.41441536 0.06107731
00000000: 0dbe ce3d 312b af3e 6c86 2fbf f17a e6be
00000010: c470 b3be 6c66 7f3e a9a0 953d 6614 023f
00000020: 6b10 383d 6310 2f3e 8179 86be a858 b8bd
00000030: c293 45bf ee42 cebe 402e d4be 342c 7a3d

bias f4 [8]
0.28620604 0.45917302 -0.41463357 -0.36045223 0.27610692 0.6235672 -0.07537814 0.53330314
00000000: 9989 923e ba18 eb3e da4a d4be 328d b8be
00000010: e35d 8d3e 1aa2 1f3f db5f 9abd 8e86 083f

weight f4 [32, 8]
-0.029925872 0.11484697 0.42751282 -0.2805407 -0.19424883 -0.0509106 -0.026573045 0.3647557
-0.19836108 -0.12158813 -0.17871563 -0.30542725 -0.17610079 0.33952457 0.2114427 0.21088931
0.018593937 -0.18126099 0.059815824 -0.33011094 -0.25546575 -0.18226737 0.22307023 0.20729586
-0.1418637 -0.08179534 0.12592047 0.35005546 0.15029983 0.029843505 0.13747856 -0.2496269
0.10288258 -0.27473798 -0.280761 -0.17165513 0.19931702 0.17581365 -0.23858751 0.12202738
0.20962246 -0.095025286 -0.06478109 0.081020094 0.23232582 0.33121058 -0.35070443 -0.1590838
0.14895293 0.2892378 0.30381307 0.3218974 0.080723576 -0.29871148 0.02878013 -0.21545799
-0.3167001 0.370975 0.3600574 -0.30666018 0.07926603 -0.033322018 0.031574626 -0.115926184
0.17424577 -0.19492124 0.11092692 0.19419986 0.295339 0.17700802 -0.359227 -0.20298104
0.1921085 0.025863279 -0.33686367 -0.2085101 0.3446993 0.23093268 -0.224369 -0.11750537
-0.3367943 -0.006354809 -0.26624653 -0.27271578 -0.019480646 0.053084284 -0.14479081 0.20979068
-0.19611406 0.39955184 0.348403 -0.24999894 -0.067068465 0.050707314 0.16170725 0.14330108
0.1656204 0.021177918 -0.17250887 0.18419127 -0.3101608 -0.1792532 -0.08850497 -0.15844071
-0.12368478 -0.28978002 -0.07520616 0.07557431 -0.23032793 -0.01814413 0.25309148 -0.036345363
0.00013609642 0.019910863 0.15407224 0.22639604 0.32734734 0.23910408 0.41732928 0.0073898816
-0.3176046 -0.16761161 0.24073634 -0.0022919178 -0.17573242 -0.2709321 -0.33087367 -0.29840195
-0.041107234 0.16027673 0.14499101 -0.33004773 0.2485234 -0.2685216 -0.1300471 -0.15538783
-0.06809977 -0.069417626 -0.3172611 -0.3052714 -0.05532384 0.0045722127 -0.16061042 0.13318327
-0.32739004 -0.02401608 0.29528752 -0.15367591 0.3115172 0.12208558 -0.32381353 0.21790004
0.014534588 -0.09703339 0.37145248 -0.2363169 0.09236246 -0.01803888 0.3315588 0.15849331
0.19696778 0.20296459 0.022780776 -0.041104943 -0.26038933 0.2361413 0.3916406 0.30168384
-0.21471089 0.03510691 -0.284472 -0.21253511 -0.17131361 0.15270445 -0.22666179 0.01989589
0.04630004 0.30605277 -0.16403405 -0.2037978 -0.17175877 0.29304215 -0.01689583 0.35987014
0.14578347 -0.003434747 -0.06769462 -0.07004022 0.058139294 -0.08955921 -0.07049038 0.015316201
-0.28369358 -0.20296325 0.25879157 -0.31171593 -0.032086406 0.34085053 0.106316105 -0.00715873
-0.24471457 0.251898 -0.15439308 -0.056117315 -0.057381213 0.014746785 0.101823255 0.36482087
0.03119244 0.38183 0.30918875 -0.22204952 0.14958203 -0.2318172 -0.053215332 0.14490311
0.10141586 0.30562398 -0.031335894 -0.0017039787 0.1673359 -0.33567202 0.3222128 -0.26690567
0.053479858 -0.047188606 -0.20442638 0.068323635 0.3435903 -0.057356652 -0.22655675 -0.10088422
-0.31116968 0.22850767 -0.06985466 -0.17608772 -0.1658687 0.24532501 0.29007676 0.33055955
0.12896277 -0.118072584 -0.098799855 0.105162896 0.29135087 0.09681904 -0.16728215 -0.16177261
-0.3342738 0.076384515 -0.19840798 -0.31521964 0.31002262 -0.22960153 -0.040220767 0.10129076
00000000: 1a27 f5bc e334 eb3d f6e2 da3e 08a3 8fbe
00000010: 2ae9 46be a287 50bd b7af d9bc 42c1 ba3e
00000020: 2b1f 4bbe 3303 f9bd 3b01 37be f660 9cbe
00000030: c453 34be 2ad6 ad3e 6f84 583e 5ef3 573e
00000040: 5052 983c 7b9c 39be 7001 753d 4d04 a9be
00000050: 68cc 82be 4ca4 3abe 866c 643e 5e45 543e
00000060: b844 11be 5184 a7bd 4cf1 003e 783a b33e
00000070: 33e8 193e 5e7a f43c 2ec7 0c3e 329e 7fbe
00000080: 1ab4 d23d 75aa 8cbe e8bf 8fbe 5dc6 2fbe
00000090: c319 4c3e 7e08 343e 4950 74be 7ee9 f93d
000000a0: 45a7 563e 9e9c c2bd f3ab 84bd dded a53d
000000b0: d2e6 6d3e 6f94 a93e 888f b3be dde6 22be
000000c0: 1e87 183e fa16 943e 638d 9b3e bccf a43e
000000d0: 6752 a53d b6f0 98be 4fc4 eb3c 05a1 5cbe
000000e0: 8426 a2be 6ff0 bd3e 7259 b83e 9002 9dbe
000000f0: 3a56 a23d ab7c 08bd 6554 013d b56a edbd
00000100: 7c6d 323e 6f99 47be a72d e33d 54dc 463e
00000110: ac36 973e 9741 353e 9aec b7be 43da 4fbe
00000120: 17b8 443e 3adf d33c 6579 acbe ac83 55be
00000130: 6d7c b03e 9e79 6c3e fdc0 65be a8a6 f0bd
00000140: 4d70 acbe 003c d0bb 7751 88be 67a1 8bbe
00000150: e095 9fbc e86e 593d 0b44 14be 5ed3 563e
00000160: 20d2 48be 0f92 cc3e e161 b23e b9ff 7fbe
00000170: 315b 89bd 79b2 4f3d 9696 253e 85bd 123e
00000180: 6598 293e 507d ad3c 2aa6 30be a39c 3c3e
00000190: 65cd 9ebe 278e 37be 1842 b5bd 483e 22be
000001a0: 724e fdbd 0c5e 94be b005 9abd b4c6 9a3d
000001b0: 16db 6bbe 00a3 94bc 3595 813e e0de 14bd
000001c0: 1bb5 0e39 1b1c a33c 1dc5 1d3e 5dd4 673e
000001d0: 129a a73e b3d7 743e 2fac d53e d226 f23b
000001e0: 129d a2be 61a2 2bbe 9683 763e 0034 16bb
000001f0: 33f3 33be 9db7 8abe 4668 a9be 24c8 98be
00000200: 0f60 28bd 951f 243e 8678 143e 04fc a8be
00000210: eb7c 7e3e aa7b 89be 112b 05be fd1d 1fbe
00000220: e477 8bbd d42a 8ebd 0c70 a2be 884c 9cbe
00000230: 409b 62bd 80d2 953b 0f77 24be 3261 083e
00000240: ab9f a7be 5fbd c4bc ed2f 973e 385d 1dbe
00000250: 2f7f 9f3e 0108 fa3d e3ca a5be 3021 5f3e
00000260: 7b22 6e3c 71b9 c6bd 052f be3e 0ffd 71be
00000270: 8828 bd3d 46c6 93bc 13c2 a93e 124c 223e
00000280: ecb1 493e f3d5 4f3e c09e ba3c a85d 28bd
00000290: c051 85be 06cf 713e 1e85 c83e 4e76 9a3e
000002a0: 2cdd 5bbe 43cc 0f3d 50a6 91be cea2 59be
000002b0: d66c 2fbe 8e5e 1c3e 071a 68be b5fc a23c
000002c0: 1ca5 3d3d f3b2 9c3e 8bf8 27be 5fb0 50be
000002d0: 88e1 2fbe 9f09 963e 2069 8abc e640 b83e
000002e0: 4348 153e 7e19 61bb 7aa3 8abd 3f71 8fbd
000002f0: 7823 6e3d d26a b7bd 435d 90bd cef0 7a3c
00000300: 4940 91be 99d5 4fbe 5480 843e 3b99 9fbe
00000310: 096d 03bd f683 ae3e 42bc d93d c893 eabb
00000320: 7596 7abe c6f8 803e 3819 1ebe 45db 65bd
00000330: 9008 6bbd 809c 713c b688 d03d cdc9 ba3e
00000340: 4a87 ff3c 397f c33e fd4d 9e3e f360 63be
00000350: 082c 193e 7d61 6dbe 52f8 59bd 7b61 143e
00000360: 1eb3 cf3d bf7a 9c3e 115a 00bd 0a58 dfba
00000370: 1a5a 2b3e 34dd abbe 13f9 a43e dca7 88be
00000380: b20d 5b3d d748 41bd 2655 51be 43ed 8b3d
00000390: 11eb af3e cfee 6abd 7efe 67be 639c cebd
000003a0: a251 9fbe eafd 693e f60f 8fbd 5750 34be
000003b0: 7cd9 29be 7b36 7b3e f184 943e 1a3f a93e
000003c0: d10e 043e 0ad0 f1bd 9457 cabd a55f d73d
000003d0: f12b 953e 1049 c63d 034c 2bbe b8a7 25be
000003e0: ef25 abbe 7c6f 9c3d 762b 4bbe 7864 a1be
000003f0: 49bb 9e3e aa1c 6bbe 88be 24bd 8871 cf3d

bias f4 [32]
0.023024926 -0.20809923 -0.28578487 0.30312032 0.10707439 0.3163805 -0.10876225 0.1069385
-0.027937703 0.008799633 -0.21532963 0.121270224 0.14488798 -0.0072933137 -0.09179469 -0.21794084
0.28063607 -0.26319367 0.13731205 -0.065632425 -0.14964662 0.09862025 -0.16067378 0.10721958
0.07080776 -0.20266633 0.041481383 0.13130262 0.19980541 -0.022563305 -0.2891109 -0.054501683
00000000: c59e bc3c f717 55be 6552 92be 9632 9b3e
00000010: d149 db3d a0fc a13e bebe debd 9302 db3d
00000020: 9cdd e4bc 562c 103c 5f7f 5cbe 865c f83d
00000030: 845d 143e c0fc eebb dbfe bbbd e22b 5fbe
00000040: 88af 8f3e 52c1 86be 889b 0c3e 4b6a 86bd
00000050: f73c 19be 6af9 c93d ab87 24be f095 db3d
00000060: a903 913d c387 4fbe 62e8 293d 3274 063e
00000070: ca99 4c3e aed6 b8bc 5806 94be 283d 5fbd

weight f4 [64, 32]
0.11948962 0.007696719 0.06710109 0.09013323 -0.13778323 -0.031068891 0.065305784 0.064306036
-0.023685385 -0.01015382 -0.1389726 0.060918283 0.08582368 0.1592959 0.13721187 0.023688614
0.02208741 -0.08599826 -0.15597534 -0.063314244 0.24092239 0.07771121 -0.06932994 0.041929655
0.13094634 0.2573944 0.19423129 0.14842138 -0.09202627 -0.0033937783 0.14749971 0.09906207
-0.03842637 0.23135842 0.085411176 0.07218911 -0.15785018 0.019802107 -0.06556679 0.19380109
-0.07365113 0.03923405 0.0313994 0.13006344 -0.09721404 0.08619125 -0.081465885 0.039925903
-0.18153563 -0.17439684 -0.14620201 0.23320358 0.16774055 0.12776661 0.20276777 -0.18161328
-0.11840535 0.055217523 -0.06661351 0.13900709 -0.1880863 -0.020418884 -0.16836704 -0.100364186
0.09501583 0.110214815 0.12654342 0.15843034 0.1956888 -0.01928069 0.08472384 0.12271688
0.089925274 0.20128517 0.091687515 0.07365318 -0.031524327 0.08482231 -0.006849383 -0.042217344
-0.045850627 -0.09919233 -0.12801899 0.05530389 0.0738739 0.0151097765 -0.14739557 0.15593164
0.12204516 -0.043324832 -0.1151601 0.15818536 0.116239294 -0.1797446 0.16588782 0.1342396
-0.12496309 0.02911031 -0.10044257 -0.0076647247 0.18923157 0.034495924 -0.12121522 -0.11347476
-0.021348715 -0.005322101 0.016917646 0.11320403 0.037663896 -0.109149 -0.03272981 0.08476217
0.14152153 -0.16156302 -0.027273731 -0.21844399 -0.14047952 0.09941902 -0.17861284 0.08901355
0.14311895 -0.06824323 -0.1632135 -0.09388116 0.081220135 -0.19490549 0.08441481 -0.16049019
-0.1826601 -0.21562465 -0.035861507 0.13026546 -0.14795221 0.16575928 -0.06745632 0.028046489
0.0075437357 -0.13660942 0.14660604 0.082204886 0.1658393 0.08930974 -0.12856881 0.14753495
0.023867823 0.08383043 -0.13401568 -0.088316455 -0.18647438 -0.05665409 0.031095373 -0.116373606
0.039773993 0.06803944 0.013742261 -0.14832464 -0.12341447 -0.06936266 0.08252125 0.17437191
0.17312662 0.057332918 0.061980814 -0.20088795 -0.20277289 0.046943948 -0.10825791 0.14630528
-0.16771515 -0.121906646 -0.14560902 0.14963269 -0.0561116 0.13604753 0.15150176 0.09781806
-0.059707247 -0.054655463 -0.046491843 0.116409294 0.16169396 -0.16183892 0.21162347 -0.047336552
-0.14522743 -0.008114802 0.2062539 0.1820621 -0.2218496 0.19351879 0.09096007 0.1046374
0.21125983 -0.021178683 0.05582179 0.048141856 -0.09329307 0.029224347 -0.059476472 0.16427502
-0.08381611 -0.096492134 0.04450336 0.111986525 -0.11942518 0.015626758 0.1392424 -0.017588705
-0.0010256411 -0.04263623 0.05634974 -0.03558138 -0.039842848 -0.121097356 0.21623011 -0.0735042
0.0045816908 -0.004312029 0.2197448 0.19222392 -0.18024208 -0.08359186 -0.1316362 -0.00085254014
-0.06629466 -0.16409126 -0.06340487 0.043963734 -0.078546874 0.05274393 -0.03956573 -0.11197827
0.02220877 0.16043878 -0.11951506 -0.010578334 -0.058001652 0.17347209 -0.18534714 -0.16946895
0.19577934 -0.11184484 0.0380358 -0.070441194 -0.061956085 -0.019133601 0.094980255 0.022687355
-0.17984208 -0.1463815 -0.077113695 0.06415547 -0.10209838 0.14337972 -0.043617528 -0.031742364
00000000: f9b6 f43d c234 fc3b 4c6c 893d c597 b83d
00000010: 0c17 0dbe 3084 febc 0abf 853d e2b2 833d
00000020: da07 c2bc 355c 26bc d54e 0ebe 7385 793d
00000030: 53c4 af3d 771e 233e 4581 0c3e a00e c23c
00000040: a8f0 b43c db1f b0bd 00b8 1fbe e6aa 81bd
00000050: 5cb4 763e 0e27 9f3d dbfc 8dbd 6ebe 2b3d
00000060: cc16 063e 33c9 833e 91e4 463e c6fb 173e
00000070: 4578 bcbd 276a 5ebb 2a0a 173e 0ee1 ca3d
00000080: f864 1dbd 39e9 6c3e 0eec ae3d e2d7 933d
00000090: 7aa3 21be 0738 a23c e247 86bd cb73 463e
000000a0: 67d6 96bd e2b3 203d a89c 003d 5a2f 053e
000000b0: 2818 c7bd 0a85 b03d 96d7 a6bd 5889 233d
000000c0: 7ae4 39be 1695 32be fbb5 15be ebcc 6e3e
000000d0: 2ec4 2b3e 40d5 023e 5ba2 4f3e d5f8 39be
000000e0: 817e f2bd c52b 623d aa6c 88bd e057 0e3e
000000f0: b299 40be 8145 a7bc 6968 2cbe bd8b cdbd
00000100: a997 c23d 4eb8 e13d 9994 013e 903b 223e
00000110: a562 483e 8af2 9dbc b183 ad3d fd52 fb3d
00000120: be2a b83d b31d 4e3e aac6 bb3d 7ad7 963d
00000130: a71f 01bd 52b7 ad3d ca70 e0bb 18ec 2cbd
00000140: decd 3bbd 5925 cbbd 6917 03be 5586 623d
00000150: 334b 973d ff8e 773c ddee 16be 8bac 1f3e
00000160: d0f2 f93d 6175 31bd 0fd9 ebbd 58fb 213e
00000170: de0e ee3d f80e 38be 7fde 293e 1b76 093e
00000180: a6ec ffbd bf78 ee3c d6b4 cdbd 5f28 fbbb
00000190: ecc5 413e 994b 0d3d af3f f8bd 7465 e8bd
000001a0: 80e3 aebc 0565 aebb e096 8a3c 84d7 e73d
000001b0: 7545 1a3d 8389 dfbd b10f 06bd ca97 ad3d
000001c0: 05eb 103e c770 25be 296d dfbc c8af 5fbe
000001d0: ddd9 0fbe 339c cb3d 49e6 36be bc4c b63d
000001e0: c68d 123e 1bc3 8bbd 7121 27be c444 c0bd
000001f0: be56 a63d 4e95 47be ace1 ac3d 8a57 24be
00000200: 400b 3bbe b5cc 5cbe 84e3 12bd 4f64 053e
00000210: c980 17be cdbc 293e 8a26 8abd c0c1 e53c
00000220: 7131 f73b 57e3 0bbe e51f 163e 095b a83d
00000230: c7d1 293e 06e8 b63d 8ba7 03be 6713 173e
00000240: 7486 c33c 4aaf ab3d 683b 09be 42df b4bd
00000250: 24f3 3ebe 1e0e 68bd b9bb fe3c 4955 eebd
00000260: 0eea 223d 4358 8b3d 3827 613c 6ae2 17be
00000270: bac0 fcbd 030e 8ebd e700 a93d 8d8e 323e
00000280: 1b48 313e ecd5 6a3d 98df 7d3d 92b5 4dbe
00000290: b2a3 4fbe 4c48 403d 53b6 ddbd 0dd1 153e
000002a0: 85bd 2bbe 31aa f9bd 881a 15be 5039 193e
000002b0: 47d5 65bd 0b50 0b3e 4723 1b3e d654 c83d
000002c0: 968f 74bd 68de 5fbd 3b6e 3ebd ff67 ee3d
000002d0: 1a93 253e 1ab9 25be d3b3 583e f9e3 41bd
000002e0: 80b6 14be f2f3 04bc 3934 533e 7d6e 3a3e
000002f0: 8b2c 63be ca29 463e 4649 ba3d 224c d63d
00000300: 7f54 583e eb7e adbc 64a5 643d 6530 453d
00000310: 7010 bfbd e667 ef3c 9a9d 73bd b637 283e
00000320: c8a7 abbd ab9d c5bd 2849 363d 3159 e53d
00000330: 3095 f4bd b003 803c 8f95 0e3e 3016 90bc
00000340: ce6e 86ba 54a3 2ebd fcce 663d c8bd 11bd
00000350: 4132 23bd e401 f8bd 6d6b 5d3e 5f89 96bd
00000360: 0222 963b ec4b 8dbb c804 613e 59d6 443e
00000370: 6191 38be 3632 abbd a4cb 06be 007d 5fba
00000380: 7fc5 87bd 8a07 28be 6ada 81bd 5113 343d
00000390: 2fdd a0bd 050a 583d ad0f 22bd dd54 e5bd
000003a0: 2bef b53c 104a 243e 50c4 f4bd c050 2dbc
000003b0: 2493 6dbd aba2 313e a4cb 3dbe 4589 2dbe
000003c0: 617a 483e e80e e5bd 6dcb 1b3d 7943 90bd
000003d0: aac5 7dbd 12be 9cbc 0285 c23d d5da b93c
000003e0: 8628 38be 08e5 15be c9ed 9dbd f163 833d
000003f0: f518 d1bd 22d2 123e 4ba8 32bd 4804 02bd

bias f4 [64]
-0.060599193 -0.028722897 0.159405 -0.12991272 -0.115360714 -0.0075456346 -0.08632156 0.01600811
0.13923454 -0.011271693 -0.1692522 -0.09807724 0.1493668 -0.05303396 -0.06222359 0.06711571
0.010413142 -0.17306516 0.1490133 0.11238173 0.1701615 0.09801209 -0.073781736 -0.04199734
0.09108608 -0.05095004 0.042789362 -0.1915457 -0.1038429 0.04690641 0.0071468963 -0.10194179
-0.17231351 0.13563272 -0.015378034 -0.19741994 0.18209258 0.07426156 -0.09399653 -0.11963828
0.18764804 0.0044582565 -0.121793546 0.11443764 -0.051070765 0.036638983 -0.076971285 -0.16703787
-0.13777283 -0.037435926 -0.14260021 0.19089708 0.013541777 -0.056093 0.07559654 -0.17051882
-0.10187957 0.0862063 -0.16278529 0.10073026 0.030437903 -0.16441177 -0.18904567 0.037588872
00000000: dc36 78bd 484c ebbc 103b 233e d707 05be
00000010: 3d42 ecbd 5f41 f7bb 5cc9 b0bd 7123 833c
00000020: 8093 0e3e e8ac 38bc 7350 2dbe b8dc c8bd
00000030: 9cf3 183e 233a 59bd 2ade 7ebd f673 893d
00000040: e29b 2a3c fe37 31be f196 183e 6428 e63d
00000050: d13e 2e3e 90ba c83d e11a 97bd 6705 2cbd
00000060: 578b ba3d fdb0 50bd e643 2f3d 8e24 44be
00000070: 96ab d4bd f020 403d 8330 ea3b dbc6 d0bd
00000080: f472 30be 4ee3 0a3e 26f4 7bbc 7428 4abe
00000090: 7a76 3a3e 7216 983d 4181 c0bd ea04 f5bd
000000a0: cf26 403e 9116 923b e56e f9bd 485e ea3d
000000b0: 942f 51bd c212 163d 1fa3 9dbd fa0b 2bbe
000000c0: 5214 0dbe 6a56 19bd ca05 12be 867a 433e
000000d0: 54de 5d3c c6c1 65bd 5cd2 9a3d 7c9c 2ebe
000000e0: 3ca6 d0bd ee8c b03d 30b1 26be ab4b ce3d
000000f0: e958 f93c 8f5b 28be 3095 41be caf6 193d
