models/TabularModel_O.pth (torch, 6791 bytes, 9 tensors)

0.weight f4 [8, 2]
0	0x3e491441	0.19636633
1	0x3ea7803d	0.32715026
2	0xbf3dd451	-0.74152094
3	0xbed48cb1	-0.4151359
4	0xbef6e13a	-0.4821871
5	0x3ea76403	0.3269349
6	0x3daa8167	0.08325463
7	0x3f00604c	0.5014694
8	0xbde5c04c	-0.11218318
9	0x3e73936b	0.23786704
10	0xbecc6290	-0.39918947
11	0xbd6f58d9	-0.05843434
12	0xbf5ab12d	-0.854266
13	0xbec32874	-0.381168
14	0xbf021740	-0.50816727
15	0x3dab94e1	0.08378006

0.bias f4 [8]
0	0x3e9c82c1	0.30568507
1	0x3ee7d747	0.4528143
2	0xbe95aa66	-0.29231566
3	0xbebba129	-0.36646393
4	0x3ed32b2b	0.41243872
5	0x3f1ee68d	0.6207054
6	0xbcc2cbd9	-0.023778843
7	0x3f093a20	0.53604317

2.weight f4 [32, 8]
0	0xbd4d9a35	-0.05019589
1	0x3e195ed4	0.1497758
2	0x3efb29cf	0.49055335
3	0xbe9a15d9	-0.30094793
4	0xbe0fa0eb	-0.14026229
5	0xbc100e43	-0.008792463
6	0x3cf788cf	0.030216603
7	0x3ecee02d	0.40405408
8	0xbe1d39df	-0.15354107
9	0xbc85e503	-0.016344553
10	0xbd3d6954	-0.046243027
11	0xbe7c0693	-0.24611883
12	0xbda2dabe	-0.07951878
13	0x3ed79eb1	0.4211326
14	0x3ec44fa2	0.38342005
15	0x3e9d8cb8	0.30771422
16	0x3bcfd71a	0.006342781
17	0xbe926fbc	-0.28600872
18	0xbd9565ad	-0.07294784
19	0xbea1f166	-0.31629485
20	0xbea09334	-0.31362307
21	0xbe84e0f2	-0.2595287
22	0x3e09e967	0.13467942
23	0x3e053031	0.13006665
24	0xbdaba9cf	-0.08381998
25	0x3e1841dd	0.14868875
26	0x3eda83fa	0.42678815
27	0x3ec1c50d	0.3784565
28	0x3e865104	0.26233685
29	0x3e41b1f0	0.18915534
30	0x3eccc7d2	0.399962
31	0xbd98c9b7	-0.07460349
32	0x3e2b33a1	0.16718914
33	0xbe880d07	-0.2657244
34	0xbea48649	-0.321337
35	0xbe21ee14	-0.15813476
36	0x3e725056	0.23663458
37	0x3e5f9ab5	0.2183636
38	0xbea0982d	-0.313661
39	0x3e1eb5c8	0.15499032
40	0x3e695327	0.22785626
41	0x3dd623b5	0.10456029
42	0x3e59b69e	0.21261069
43	0x3dd07bef	0.101798885
44	0x3ea73ea8	0.3266499
45	0x3ee9eb8f	0.4568753
46	0xbdaba316	-0.083807155
47	0xb8fc1de8	-0.00012021867
48	0x3e32d99f	0.17465828
49	0x3e753196	0.23944697
50	0x3e602f12	0.21892956
51	0x3eac28c7	0.3362486
52	0x3db48ee8	0.0881632
53	0xbea73dfc	-0.32664478
54	0xbd8208d9	-0.06349344
55	0xbe862d10	-0.26206255
56	0xbeb56ad1	-0.35433057
57	0x3ed5ff0d	0.4179615
58	0x3edd6354	0.43239844
59	0xbeaaf1d6	-0.3338763
60	0x3df82fd0	0.121184945
61	0xbb8c4ab7	-0.0042813676
62	0x3df0919a	0.11746521
63	0xbdb28a9a	-0.087178424
64	0x3e88de7a	0.26732236
65	0xbe0f7516	-0.14009508
66	0x3d80ff36	0.062986776
67	0x3e6b3367	0.22968827
68	0x3ebf3ca2	0.37350947
69	0x3e853f77	0.26024982
70	0xbeee5247	-0.46547148
71	0xbe02d3e4	-0.12776142
72	0x3e89c419	0.26907423
73	0x3d57def6	0.052702866
74	0xbecbd509	-0.3981097
75	0xbe36b0cf	-0.17840885
76	0x3ec62763	0.38701925
77	0x3e918826	0.28424186
78	0xbe944208	-0.28956628
79	0xbd94e2d1	-0.07269824
80	0xbed09b0d	-0.40743294
81	0x3c96f662	0.018428031
82	0xbe6450f5	-0.22296508
83	0xbe905f6f	-0.2819781
84	0xbd68bc0a	-0.056819953
85	0x3cd8a2cf	0.02644482
86	0xbd096e38	-0.03355238
87	0x3e542958	0.20718896
88	0xbe5db503	-0.21651082
89	0x3ee99e8c	0.45628774
90	0x3edc09a8	0.42976117
91	0xbe8922c0	-0.26784325
92	0xbc2f9433	-0.010716486
93	0x3dcd75d3	0.10032239
94	0x3e854909	0.26032284
95	0x3e425924	0.18979317
96	0x3e4bbf0a	0.19897094
97	0xbddef6aa	-0.10886891
98	0xbea0babf	-0.31392476
99	0x3e4aa822	0.197907
100	0xbe94b859	-0.29046896
101	0xbe30dd1b	-0.17271845
102	0xbe87cf63	-0.2652541
103	0xbe16bebf	-0.14721201
104	0xbc8d675b	-0.017261198
105	0xbeb204ee	-0.34769386
106	0xbe63d41c	-0.22248882
107	0x3ddf9fcb	0.1091915
108	0xbe21855b	-0.15773527
109	0x3ce040eb	0.027374705
110	0x3e04ce2b	0.12969272
111	0xbce5484e	-0.02798858
112	0xbc25178f	-0.010076418
113	0x3df8fe3c	0.12157866
114	0x3e8cad6a	0.27476054
115	0x3e6a1d88	0.22862828
116	0x3ed26f16	0.41100377
117	0x3ea458c7	0.32098982
118	0x3f0cb98d	0.5497063
119	0x3dc43a0c	0.09581384
120	0xbec703cf	-0.38870093
121	0xbea803cb	-0.32815394
122	0x3d78a939	0.06070826
123	0xbccb9b4f	-0.02485433
124	0xbe95377b	-0.2914389
125	0xbece0268	-0.4023621
126	0xbef7c197	-0.48389885
127	0xbed9a466	-0.4250824
128	0xbc9f0ad5	-0.019414345
129	0x3ec3f3e0	0.38272
130	0x3ecb9a0c	0.39765966
131	0xbea9e5ef	-0.33183238
132	0x3eae61f5	0.3405911
133	0xbe073707	-0.13204585
134	0x3dea9cc3	0.11455681
135	0x3b0786de	0.0020679752
136	0xbe119655	-0.14217503
137	0xbe58921d	-0.21149488
138	0xbef5f46c	-0.48038042
139	0xbea439ee	-0.32075447
140	0xbe2fc7e5	-0.17166097
141	0xbdfb2c03	-0.12264254
142	0xbe9509b6	-0.2910897
143	0x3c807657	0.015681429
144	0xbeb2cb04	-0.34920514
145	0x3dc8f294	0.09811893
146	0x3ef96dd5	0.48716608
147	0xbe086116	-0.13318285
148	0x3eb6eb11	0.35726216
149	0x3e3cf919	0.18454398
150	0xbdf9967d	-0.121869065
151	0x3e9ca83b	0.305971
152	0xbc4e83d2	-0.012604671
153	0xb9aa40c9	-0.00032473195
154	0x3ef9e844	0.48810017
155	0xbe6f01e7	-0.2334057
156	0x3e060bec	0.13090485
157	0x3cc25a91	0.023724826
158	0x3effefb4	0.49987566
159	0x3e6125ec	0.21987122
160	0x3e2a112b	0.16608112
161	0x3e738876	0.23782524
162	0x3dafeae3	0.08589723
163	0xbd5a1e16	-0.05325135
164	0xbe6b3772	-0.2297037
165	0x3e846d89	0.2586482
166	0x3ef0ad03	0.47006997
167	0x3ea7eae9	0.3279641
168	0xbe893fef	-0.2680659
169	0x3b932b78	0.004491266
170	0xbeafcd73	-0.34336433
171	0xbe597fd0	-0.21240163
172	0xbe6569da	-0.2240366
173	0x3ddd4d3b	0.10805746
174	0xbe9302cb	-0.28713068
175	0xbca936a1	-0.020655932
176	0x3cbd9fa4	0.023147412
177	0x3ebffeda	0.37499124
178	0xbd8b7c62	-0.068108335
179	0xbe598de8	-0.21245539
180	0xbdea46ed	-0.11439309
181	0x3eb0c172	0.34522587
182	0x3dbee2c4	0.09320596
183	0x3ed57d60	0.41697216
184	0x3e5841f1	0.21118905
185	0xbc028f10	-0.007968679
186	0xbdeb8e1d	-0.11501715
187	0xbd5d5f92	-0.05404622
188	0x3dab364d	0.083599664
189	0xbd664606	-0.056219123
190	0xbe208587	-0.15675937
191	0x3d0fa994	0.03507383
192	0xbe90aa2f	-0.2825484
193	0xbd629dae	-0.055326156
194	0x3ef5c606	0.48002642
195	0xbe819d21	-0.25315192
196	0x3d188d86	0.037244342
197	0x3ed775d8	0.42082095
198	0x3ea9c1a2	0.33155543
199	0x3ddaba9c	0.10680124
200	0xbe9c4f02	-0.30529028
201	0x3e9a038f	0.3008084
202	0xbdadb719	-0.08482189
203	0xbe05b69b	-0.1305794
204	0xbd37b9bc	-0.044854864
205	0x3cfed9ef	0.031109778
206	0x3e51dbd8	0.2049402
207	0x3ec61a27	0.38691828
208	0xbc0fe5a2	-0.008782776
209	0x3ee2f0ef	0.44324443
210	0x3ecbc9d3	0.39802417
211	0xbe75606f	-0.23962568
212	0x3e4f99aa	0.20273462
213	0xbe3d9656	-0.1851438
214	0x3d2f62e2	0.04281891
215	0x3e48195b	0.19540922
216	0x3e53e81a	0.20694008
217	0x3e71ecd5	0.236255
218	0xbe3e71e1	-0.18598129
219	0x3d0b45ad	0.034001995
220	0x3e70bf48	0.23510468
221	0xbe9fa385	-0.31179443
222	0x3e1561f4	0.14588147
223	0xbe9306c8	-0.2871611
224	0x3dbfcc76	0.0936517
225	0xbc70a39f	-0.014687448
226	0xbe5d3074	-0.21600515
227	0x3d74bef0	0.059752405
228	0x3ebb7ae5	0.366172
229	0xbcb154cb	-0.021646878
230	0xbe90041d	-0.28128138
231	0xbd8b2535	-0.06794206
232	0xbea305a4	-0.3184024
233	0x3e9b3fa4	0.3032199
234	0x3c9cfe3f	0.019164203
235	0xbe2742bc	-0.16334051
236	0xbddba829	-0.107254334
237	0x3e98e020	0.29858494
238	0x3ed04b31	0.40682366
239	0x3ec79c41	0.389864
240	0x3e3559ac	0.17709988
241	0xbe6ee159	-0.23328151
242	0xbe835409	-0.2565005
243	0x3e145258	0.14484537
244	0x3e9c2d40	0.30503273
245	0x3d9f35a4	0.07773903
246	0xbe91bb8e	-0.28463405
247	0xbe4df1e5	-0.20111807
248	0xbea0934a	-0.31362373
249	0xbd040f9e	-0.032241456
250	0xbeb94971	-0.36188844
251	0xbea94cb3	-0.3306633
252	0x3e86e4b3	0.2634636
253	0xbe95c57f	-0.2925224
254	0xbe54b5ad	-0.20772429
255	0x3c88b8c0	0.016689658

2.bias f4 [32]
0	0x3d0d2544	0.034459367
1	0xbe28222a	-0.16419283
2	0xbea492ff	-0.321434
3	0x3ec79711	0.38982442
4	0x3e334481	0.17506601
5	0x3eb43fe5	0.35204998
6	0xbdabe5d7	-0.08393448
7	0x3dd0818e	0.101809606
8	0x3d998701	0.07496453
9	0x3da889cb	0.08229407
10	0xbe94606d	-0.28979817
11	0x3e098d8f	0.13432907
12	0x3e2adaaa	0.16684976
13	0x3dd24fc8	0.10269123
14	0xbd96bde0	-0.073604345
15	0xbea36f74	-0.3192097
16	0x3eaa8b07	0.33309194
17	0xbebf0a23	-0.3731242
18	0x3dfb2f3b	0.12264868
19	0xbda6647c	-0.081246346
20	0xbe258c4c	-0.161668
21	0x3d492e1f	0.04911625
22	0xbe1fb482	-0.15596202
23	0x3e33523a	0.17511836
24	0x3d919ffe	0.07110594
25	0xbe65dacd	-0.22446747
26	0x3cf16e37	0.0294715
27	0x3e75c4c4	0.24000841
28	0x3e79c8f6	0.24393067
29	0xbc60ddc3	-0.013724747
30	0xbe7e78bc	-0.24850744
31	0xbd3c5014	-0.045974806

4.weight f4 [16, 32]
0	0x3cc63aed	0.02419802
1	0xbe160789	-0.14651312
2	0x3d0817ab	0.033225697
3	0x3e0726aa	0.13198343
4	0x3bdf512a	0.0068150954
5	0x3d283150	0.041062653
6	0x3ddb8c43	0.10720112
7	0xbce95f04	-0.02848769
8	0x3de832e3	0.11337831
9	0x3d8b123f	0.067905895
10	0xbe43ce7e	-0.1912174
11	0xbc6ae334	-0.014336396
12	0x3e697dab	0.22801845
13	0x3e5bdb01	0.21470262
14	0x3d956126	0.0729392
15	0x3c8e8570	0.017397612
16	0x3dd7cc17	0.10536974
17	0xbdd79d0d	-0.10528002
18	0xbe155a21	-0.14585163
19	0xbe7e144b	-0.24812429
20	0x3dfd60f9	0.12372012
21	0x3e02c4de	0.12770411
22	0xbe1daf28	-0.15398848
23	0x3e05f45d	0.13081498
24	0x3dd0671c	0.101759166
25	0x3da474dd	0.080301024
26	0x3e0627ec	0.13101166
27	0x3e4862a4	0.19568878
28	0x3d82112e	0.06350933
29	0xbddc4882	-0.10756017
30	0x3e31236a	0.17298666
31	0x3da5f673	0.08103647
32	0xbddbe7a1	-0.10737539
33	0x3e1e6b12	0.15470532
34	0x3db8256f	0.08991515
35	0x3dbe559d	0.09293673
36	0xbdd1f55f	-0.10251879
37	0x3d3c20e2	0.045929797
38	0xbda7570b	-0.08170899
39	0x3e0bd4a1	0.1365533
40	0xbcbc7289	-0.023003833
41	0x3d750907	0.059823062
42	0x3d23e21e	0.040010564
43	0x3d92ed6a	0.071741894
44	0xbd9e10c2	-0.0771804
45	0x3d4834f6	0.048878632
46	0xbdf77eaa	-0.12084706
47	0x3d2d051d	0.042241205
48	0xbe086361	-0.1331916
49	0xbe2e4d79	-0.17021741
50	0xbe110021	-0.14160205
51	0x3dd80b7f	0.10549068
52	0x3dbf8f52	0.09353508
53	0x3e2c0372	0.1679819
54	0x3e0e0129	0.1386763
55	0xbe2be512	-0.16786602
56	0xbdf82bd4	-0.121177346
57	0xbc8ac646	-0.016940247
58	0xbdeee33b	-0.116644345
59	0x3de463cb	0.111518465
60	0xbe013257	-0.1261686
61	0xbdb646b9	-0.08900208
62	0xbe352d96	-0.17693171
63	0xbdcb7f34	-0.099363714
64	0x3dcfe52f	0.10151135
65	0x3ca7c730	0.020480722
66	0x3d5a6f2f	0.05332869
67	0x3e4a15d3	0.19734888
68	0x3e8c8e94	0.27452528
69	0x3d0c1fce	0.03421002
70	0x3dcd345c	0.100197524
71	0x3db8a9d5	0.09016768
72	0x3e3c202a	0.18371645
73	0x3e84cd63	0.25937948
74	0xbbd6fea7	-0.0065611186
75	0x3d8d7a53	0.06908097
76	0x3d685b5a	0.056727745
77	0x3e226ccf	0.1586182
78	0xbbe37d8b	-0.006942456
79	0xbd9e1dc2	-0.077205196
80	0xbcbf359d	-0.023340994
81	0xbe263cd7	-0.16234146
82	0xbde6878b	-0.112563215
83	0xbce2611e	-0.0276342
84	0x3d3a8140	0.04553342
85	0xbc7fcdda	-0.015613044
86	0xbe1c6d23	-0.15276007
87	0x3e7a09b9	0.24417771
88	0x3dc7ef0b	0.09762391
89	0xbe0d1aae	-0.13779709
90	0xbdf20976	-0.11818211
91	0x3e8a2f25	0.26989093
92	0x3e4f6111	0.20251872
93	0xbe51f9b4	-0.2050541
94	0x3e55bcae	0.20872757
95	0x3d970e75	0.07375804
96	0xbe4ca9ab	-0.19986598
97	0xbd83d166	-0.06436424
98	0xbdbe5a4c	-0.092945665
99	0xbd870a69	-0.065937825
100	0x3e2ded53	0.16985063
101	0xb92ca96b	-0.00016466311
102	0xbe0b6df8	-0.13616168
103	0xbe55aba6	-0.2086626
104	0x3bf4bc54	0.0074687395
105	0xbcced648	-0.025248662
106	0x3ca2ba73	0.019864297
107	0x3d9383a6	0.07202844
108	0x3c4548a1	0.012041242
109	0xbdf3967b	-0.11893936
110	0xbdaf8bed	-0.085716106
111	0x3debb7b7	0.1150965
112	0x3d2e4535	0.04254647
113	0xbe0376fa	-0.12838355
114	0xbd71df28	-0.05905071
115	0xbe9f3962	-0.31098467
116	0xbe555ca6	-0.20836124
117	0x3da52f26	0.080656335
118	0xbe770f49	-0.24126925
119	0x3dae6228	0.085148156
120	0x3dbada96	0.09123723
121	0xbe27f837	-0.1640328
122	0xbe638cd4	-0.2222169
123	0xbd69415c	-0.056947097
124	0x3d83109c	0.06399652
125	0xbe875780	-0.26433945
126	0x3da85e09	0.08221061
127	0xbe03b616	-0.12862429
128	0xbbfc9d4d	-0.0077091814
129	0x3cda6f80	0.026664495
130	0xbe0d621d	-0.13806958
131	0x3e7b33b1	0.24531437
132	0xbe091e8f	-0.13390563
133	0x3e7ef6a8	0.2489878
134	0xbd5fc2ff	-0.054629322
135	0x3e7848de	0.24246547
136	0x3d3179b2	0.04332895
137	0xbda3663a	-0.079784825
138	0x3d730b59	0.059336994
139	0x3e6dd56c	0.23225945
140	0x3e66eab6	0.22550473
141	0x3de64e0b	0.11245354
142	0x3cb04bee	0.021520581
143	0x3cf103a3	0.02942068
144	0x3e0f4848	0.13992417
145	0xbd1e7772	-0.03868813
146	0xbcf27232	-0.029595468
147	0x3e1e65b8	0.1546849
148	0xbb1cabb1	-0.0023906047
149	0xbe3672c8	-0.17817223
150	0x3e3d9752	0.18514755
151	0xbdc02959	-0.093828864
152	0x3e452d2c	0.19255513
153	0x3e9bcfe2	0.3043204
154	0x3e277827	0.16354428
155	0xbd3e5e61	-0.046476725
156	0xbdcefbaa	-0.10106595
157	0x3dcc2c20	0.09969354
158	0x3d9ed7ba	0.0775599
159	0x3d686e49	0.0567458
160	0x3e83eb24	0.25765336
161	0x3e2b0505	0.16701134
162	0x3bd7ee26	0.006589669
163	0xbd7556b6	-0.059897147
164	0xbe5dcced	-0.21660204
165	0x3e0ba897	0.1363853
166	0xbe05786c	-0.13034219
167	0x3e7adbee	0.24497959
168	0xbe41120b	-0.18854539
169	0xbd858de5	-0.06521205
170	0xbe2c7659	-0.16842021
171	0x3e679d5c	0.22618622
172	0xbdd98cda	-0.106225684
173	0x3da47dba	0.08031793
174	0x3e7a3861	0.2443557
175	0x3b9bb35f	0.0047516073
176	0x3e0ad8ac	0.13559216
177	0xbe1f9f71	-0.15588166
178	0x3d7ad57b	0.061238747
179	0x3e7440de	0.2385287
180	0x3e6e65bd	0.23280998
181	0xbe5cd81a	-0.21566811
182	0x3e8d5707	0.2760546
183	0xbd8e8851	-0.06959594
184	0xba8e67a7	-0.0010864631
185	0x3dd57cf0	0.104242206
186	0x3e938d2e	0.2881865
187	0x3e296397	0.16541897
188	0xbe774d62	-0.24150613
189	0x3e8822f6	0.26589173
190	0x3c032a38	0.008005671
191	0x3c148123	0.009063992
192	0x3dd8d877	0.105881624
193	0xbe49b1d6	-0.19696745
194	0x3c3027a0	0.010751635
195	0x3dcd8543	0.10035183
196	0x3d9a0176	0.0751981
197	0x3de26b84	0.11055663
198	0xbcfb92a9	-0.030709581
199	0x3d813e16	0.0631067
200	0x3db8188c	0.08989057
201	0xbc4a4a40	-0.012346804
202	0xbd173790	-0.036918223
203	0x3ccfb5d0	0.02535525
204	0x3d6ee9eb	0.05832855
205	0x3db1dc67	0.086846165
206	0x3d8509da	0.0649602
207	0xbce858bb	-0.028362622
208	0x3dc2778b	0.09495457
209	0xbd98169e	-0.07426189
210	0x3d7a4e90	0.06111008
211	0xbe845926	-0.25849265
212	0xbe34910e	-0.17633459
213	0xbd886cfb	-0.066614114
214	0x3df1018b	0.117678724
215	0x3d15be8f	0.036558684
216	0xbd07cccf	-0.033154305
217	0xbe54000b	-0.20703141
218	0x3e0e8b5d	0.1392035
219	0x3e8b6276	0.27223557
220	0x3c8304be	0.015993472
221	0xbe4fcb67	-0.20292436
222	0xbdbd66f9	-0.09248156
223	0xbce7756b	-0.028254231
224	0xbd09a0cf	-0.033600625
225	0xbe3dfdf2	-0.18553904
226	0xbe1f3824	-0.1554876
227	0x3df5154a	0.11966951
228	0x3d154b58	0.036448807
229	0x3e0c36a8	0.13692725
230	0xbbf8d89c	-0.007594181
231	0xbdd43633	-0.103619
232	0x3e1ed58a	0.15511146
233	0x3e7ac2b6	0.24488339
234	0xbe6e2c17	-0.23259006
235	0x3c6737b9	0.014112406
236	0x3d4561c9	0.04818896
237	0x3e6581a6	0.22412738
238	0xbe19d689	-0.15023245
239	0xbe6f4cf8	-0.23369205
240	0x3e8a6c95	0.27035967
241	0xbe4d3ca3	-0.20042662
242	0x3dad5f77	0.08465474
243	0xbdc2f0a6	-0.09518556
244	0xbd98796b	-0.07445034
245	0xbd405316	-0.046954237
246	0x3dd85f8a	0.10565098
247	0x3e029855	0.12753423
248	0xbe1a5921	-0.15073062
249	0xbe53e75d	-0.20693727
250	0xbd3b571c	-0.04573737
251	0x3e4ad369	0.19807209
252	0x3cbd4e6f	0.02310869
253	0x3e1181bc	0.14209646
254	0xbcb55603	-0.02213574
255	0xbdf2e6fa	-0.118604615

4.bias f4 [16]
0	0x3ca4d3e7	0.020120574
1	0xbd15537e	-0.036456577
2	0x3db56a0f	0.0885812
3	0xbd87baaf	-0.06627404
4	0x3e0632fc	0.13105386
5	0x3d0a302d	0.03373735
6	0x3e33fd16	0.17577013
7	0x3d8bc340	0.0682435
8	0xbc12fd5f	-0.008971541
9	0xbda8ad9b	-0.082362376
10	0xbe3f6f1d	-0.1869473
11	0x3da7e678	0.08198255
12	0x3c2911c7	0.01031918
13	0xbdaa548a	-0.08316906
14	0x3c44e2ba	0.012016946
15	0x3df3da7a	0.119069055

6.weight f4 [8, 16]
0	0x3d228fc4	0.039687887
1	0x3dbf8f33	0.09353485
2	0x3e14d11b	0.14532892
3	0x3dd9acdd	0.10628674
4	0x3e20545e	0.15657184
5	0xbdbd77ae	-0.09251343
6	0x3e60394b	0.21896856
7	0x3ea31447	0.31851408
8	0xbdc99af7	-0.0984401
9	0x3bcef990	0.0063163713
10	0xbd531d43	-0.051541578
11	0x3e3e3b40	0.1857729
12	0xbdf8e498	-0.12152976
13	0xbe40a988	-0.18814671
14	0x3e36698f	0.17813705
15	0xbdc37df7	-0.0954551
16	0x3db07465	0.086159505
17	0xbe30f674	-0.17281514
18	0x3e959504	0.29215252
19	0xbe20566a	-0.15657964
20	0x3e1447f8	0.14480579
21	0x3e1a147b	0.15046875
22	0x3e1fc5eb	0.15602843
23	0x3de7e825	0.11323575
24	0x3e048e0c	0.12944812
25	0xbdb7672f	-0.089552276
26	0xbd1b6f0f	-0.03794771
27	0xbe19fd48	-0.15038025
28	0xbdd2f692	-0.10300936
29	0xbd8aa4c4	-0.06769708
30	0x3e06c3ab	0.13160579
31	0x3da366fa	0.079786256
32	0xbe92a3dc	-0.2864064
33	0x3cfb53f5	0.030679682
34	0xbdca9c9a	-0.09893151
35	0xbe060607	-0.13088237
36	0x3e8c238b	0.27370867
37	0x3ed88a4f	0.4229302
38	0xbe634c78	-0.2219714
39	0xbde1e467	-0.110298924
40	0x3dab3521	0.08359743
41	0xbeb37b49	-0.35054997
42	0xbe8425e9	-0.25810173
43	0x3eba1e62	0.36351305
44	0x3e956d63	0.29185018
45	0x3ead6a14	0.33869994
46	0x3cb99034	0.02265177
47	0xbe977127	-0.29578516
48	0x3dbde2a2	0.092717424
49	0x3e528a95	0.20560677
50	0xbcf5a82a	-0.029987413
51	0x3ebbf290	0.36708498
52	0xbb25c0bf	-0.0025291888
53	0x3c945640	0.018107533
54	0xbcb524b7	-0.022112234
55	0x3e6ebd51	0.23314406
56	0xbebc3cc2	-0.36765105
57	0x3da715aa	0.08158429
58	0x3e073abc	0.13205999
59	0xbcf686d2	-0.030093584
60	0x3dac9c3c	0.08428237
61	0x3d7cfa9a	0.06176243
62	0x3eb78bac	0.3584875
63	0x3e976c72	0.29574925
64	0x3dd6718a	0.104708746
65	0xbacfe35f	-0.0015860609
66	0xbe9e6260	-0.3093443
67	0xbe801438	-0.25015426
68	0x3d2362c2	0.039889105
69	0x3d11d74a	0.035605706
70	0x3d0b6087	0.034027603
71	0xbd0762bf	-0.033053156
72	0x3e575de8	0.21031916
73	0xbd3b5395	-0.045734007
74	0x3e2781d4	0.16358119
75	0x3e53a4a6	0.20668277
76	0xbda8f75d	-0.08250306
77	0x3c626bf5	0.013819684
78	0xbcc37418	-0.023859069
79	0xbdc190c1	-0.09451438
80	0x3dbd6fb9	0.09249825
81	0xbe671417	-0.22566257
82	0xbe8d0c88	-0.27548623
83	0x3e139f47	0.14416228
84	0x3e0f4feb	0.1399533
85	0xbe323e5b	-0.17406599
86	0x3d82544b	0.06363734
87	0xbe7d5240	-0.24738407
88	0x3e883775	0.2660481
89	0x3dcc0bb6	0.09963171
90	0x3e8bb74f	0.2728829
91	0xbe85ab4b	-0.2610725
92	0xbe76365b	-0.24044172
93	0x3e91a1cf	0.28443763
94	0x3e554946	0.20828733
95	0x3de9749b	0.11399194
96	0x3e7765d8	0.24159944
97	0xbe87dfc1	-0.26537898
98	0x3e9cf499	0.30655363
99	0xbde08797	-0.10963362
100	0x3da0ddce	0.07854806
101	0xbec1e8ac	-0.37872827
102	0x3b843b28	0.0040353723
103	0x3e285999	0.16440429
104	0xbe821e36	-0.25413674
105	0x3c846a57	0.016163988
106	0xbe66b960	-0.22531652
107	0xbea14df6	-0.31504792
108	0xbd8c8ef7	-0.06863206
109	0xbeb0d317	-0.3453605
110	0xbd4157cd	-0.047202874
111	0x3ced27c4	0.028949626
112	0xbe6f9a8c	-0.23398799
113	0xbe35526f	-0.17707227
114	0x3dc57470	0.09641349
115	0x3c1b54b4	0.009480644
116	0x3dcf525a	0.10123129
117	0x3c965380	0.018350363
118	0x3d36e1bb	0.044648867
119	0xbd141b52	-0.036158867
120	0xbd2638d6	-0.040581547
121	0xbc5c613a	-0.013450915
122	0x3e4ccb06	0.19999322
123	0xbe22feb3	-0.15917473
124	0xbe01619a	-0.12634888
125	0x3e5a0fc4	0.21295077
126	0x3da5ef16	0.08102243
127	0xbe5c87b2	-0.21536139

6.bias f4 [8]
0	0x3e09791c	0.13425106
1	0x3e725f56	0.2366918
2	0x3d8d155c	0.068888396
3	0x3da33628	0.07969314
4	0x3e624769	0.22097553
5	0x3e0cae84	0.13738447
6	0xbdad53f4	-0.084632784
7	0x3c47d609	0.012197026

8.weight f4 [1, 8]
0	0x3e97e577	0.29667255
1	0x3ed4182f	0.414247
2	0xbf019e98	-0.5063262
3	0x3de52942	0.1118951
4	0xbdd22553	-0.10261025
5	0xbea42f56	-0.32067364
6	0x3e6caed4	0.23113567
7	0xbda8a120	-0.08233857
